part2-pytorch/checkpoints/vanillacnn.pth (torch, 236977 bytes, 4 tensors)

conv.weight f4 [32, 3, 7, 7]
-0.07906639 -0.24061811 0.01427787 0.1764025 0.19353783 -0.14303617 -0.047825087 0.1110873
-0.06942336 -0.06740967 0.062044986 -0.02168184 -0.006819924 0.07791881 -0.14755538 -0.13633707
0.086295106 -0.01790484 0.016645525 0.07276442 0.010644067 0.07501214 0.14174466 0.1064038
0.00871108 -0.20495307 0.06072123 0.0353431 0.2090725 0.04138378 -0.05499604 -0.03760437
0.16183166 0.16624343 0.02970626 0.042439874 -0.09890921 0.06604063 -0.08838389 0.08862475
-0.078428194 -0.16318898 -0.02837862 -0.13816047 0.14980425 -0.05398441 0.028630948 0.03824963
-0.088596 0.048223242 -0.13452822 0.16497408 -0.08827002 0.00011505345 0.025653232 -0.13889371
0.19587812 0.049928058 0.04618391 0.055824928 -0.014901794 -0.23492594 -0.06018041 -0.012106749
-0.17897223 0.13196997 -0.07141853 -0.06506502 -0.04946216 -0.14606735 0.24277689 0.049707714
-0.013459252 -0.1253917 0.049072478 0.03961445 0.09814346 -0.016940366 -0.08689451 -0.005500272
0.07868127 -0.010969244 -0.07730471 -0.17175671 -0.037248522 0.037007093 -0.1032985 -0.0073432354
-0.15983632 -0.01770544 -0.08981138 0.0024755702 0.05483759 -0.11651746 0.039970055 0.07141673
0.008936435 0.12887917 -0.11552355 -0.121519685 -0.16928136 0.14137398 -0.22209112 0.088598646
-0.059966713 -0.04024755 0.042073075 0.027769944 -0.09864694 0.118459895 0.061481144 0.071006194
0.21618924 0.04346474 0.120975405 0.0569344 -0.17285691 0.10847484 -0.0725228 -0.05639196
0.024817267 -0.016516414 -0.13128337 -0.06067564 0.019486167 0.094090134 0.018450767 -0.14020431
0.07930985 0.028856177 -0.079153225 -0.022268098 -0.030531224 0.12444474 -0.13192074 -0.16291867
-0.018609729 -0.08564242 -0.0047186706 -0.2125148 0.04629873 -0.024468243 -0.2547293 -0.012082552
-0.22660561 -0.08072421 -0.10985083 0.24143717 0.019061552 0.035183255 -0.044855587 -0.17850953
0.11882238 -0.009085131 0.07658247 0.007221692 0.117625244 -0.025373714 0.04677579 0.063251615
-0.07195172 -0.18149838 0.15644795 -0.12282951 -0.046878442 -0.023545764 -0.03166434 0.07033903
0.12682723 0.1117854 -0.08998486 0.06328692 0.26867187 -0.18543717 0.2205462 0.016673233
-0.09647627 -0.015413089 0.032579634 0.018108916 0.13882568 0.09659665 -0.038906656 -0.0027141334
-0.053748712 -0.030979583 -0.20968226 0.31891686 0.30315387 0.030080417 0.1854809 0.16158621
0.043339655 0.003890808 -0.036171332 0.07960787 0.03453203 0.027036805 -0.1856871 -0.21144071
0.084591754 -0.1309912 0.11253816 0.13691062 -0.21650533 0.13546595 0.10910958 -0.07144359
0.034971736 -0.17233981 -0.1071285 0.048955973 0.1469851 -0.018573346 -0.032628905 0.23265864
0.05419452 0.0032560355 0.084366634 0.054303877 -0.0003005668 -0.069556735 -0.08576297 0.11125403
-0.12686153 0.02897829 -0.16085057 0.018752474 0.0056219776 0.19182666 0.0849953 -0.13014483
0.046492346 0.09567644 0.08265243 0.04480957 -0.110463664 0.039470542 -0.018573482 0.06498718
0.109995835 0.059427127 -0.015557562 0.109886676 -0.013378924 0.13618404 0.017321058 0.049303982
-0.010481311 -0.052710548 -0.043278866 0.040773097 0.055168744 0.009306908 0.16661043 0.28539914
00000000: 8fed a1bd 9864 76be baed 693c dba2 343e
00000010: c82e 463e 1378 12be 3de4 43bd bd81 e33d
00000020: d62d 8ebd 150e 8abd e222 7e3d 1d9e b1bc
00000030: ab79 dfbb e693 9f3d c218 17be f29b 0bbe
00000040: 7dbb b03d 2cad 92bc 325c 883c 8305 953d
00000050: 7464 2e3c f79f 993d 8325 113e 3cea d93d
00000060: ebb8 0e3c 38df 51be d3b6 783d edc3 103d
00000070: 1a17 563e 0a82 293d 8743 61bd 0a07 1abd
00000080: 33b7 253e b83b 2a3e 8b5a f33c 6fd5 2d3d
00000090: e990 cabd 4f40 873d 9d02 b5bd e580 b53d
000000a0: f69e a0bd 031b 27be 487a e8bc f079 0dbe
000000b0: 4966 193e c21e 5dbd 738b ea3c a5ab 1c3d
000000c0: d271 b5bd bc85 453d c4c1 09be f7ee 283e
000000d0: eac6 b4bd da48 f138 ba26 d23c 273a 0ebe
000000e0: 4694 483e 5d81 4c3d 572b 3d3d aea8 643d
000000f0: a726 74bc 6d90 70be bc7f 76bd 635b 46bc
00000100: 7f44 37be 2323 073e e143 92bd cf40 85bd
00000110: d598 4abd ae92 15be 819a 783e 519a 4b3d
00000120: 3284 5cbc af66 00be 3900 493d c342 223d
00000130: 70ff c83d 86c6 8abc c0f5 b1bd a03b b4bb
00000140: a523 a13d 58b8 33bc ef51 9ebd fee0 2fbe
00000150: e891 18bd c094 173d 2a8e d3bd 869f f0bb
00000160: 22ac 23be 000b 91bc 07ef b7bd 2d3d 223b
00000170: 619d 603d b5a0 eebd a4b7 233d ef42 923d
00000180: 206a 123c e7f8 033e 9c97 ecbd 50df f8bd
00000190: 1858 2dbe 57c4 103e db6b 63be 3573 b53d
000001a0: a89f 75bd 9dda 24bd d154 2c3d cb7d e33c
000001b0: 6807 cabd 1a9b f23d a7d3 7b3d b26b 913d
000001c0: b660 5d3e 1508 323d f4c1 f73d 0c34 693d
000001d0: 6701 31be 0f28 de3d d586 94bd 41fb 66bd
000001e0: 954d cb3c 6e4d 87bc 266f 06be 0587 78bd
000001f0: 74a1 9f3c 54b2 c03d 1026 973c b891 0fbe
00000200: 346d a23d ca63 ec3c 161b a2bd 966b b6bc
00000210: 9e1c fabc e2dc fe3d 3b16 07be 27d4 26be
00000220: 6e73 98bc 4b65 afbd 149f 9abb 7b9d 59be
00000230: bda3 3d3d a071 c8bc e16b 82be e5f5 45bc
00000240: 4d0b 68be bc52 a5bd 79f9 e0bd 4e3b 773e
00000250: f926 9c3c 511c 103d 7eba 37bd 34cb 36be
00000260: 2659 f33d cdd9 14bc 45d7 9c3d f1a3 ec3b
00000270: 81e5 f03d 89dc cfbc f997 3f3d 108a 813d
00000280: 6c5b 93bd b6da 39be e433 203e 0a8e fbbd
00000290: 9c03 40bd 0ce3 c0bc 78b2 01bd e90d 903d
000002a0: ffde 013e beef e43d fb49 b8bd 939c 813d
000002b0: 5c8f 893e 3ee3 3dbe ddd6 613e 4e96 883c
000002c0: 5a95 c5bd 2e87 7cbc 3972 053d 2659 943c
000002d0: 5228 0e3e 77d4 c53d 965c 1fbd 9adf 31bb
000002e0: 9c27 5cbd e5c8 fdbc f2b6 56be 1249 a33e
000002f0: fc36 9b3e 356b f63c b4ee 3d3e db76 253e
00000300: ec84 313d edfc 7e3b 6428 14bd 7309 a33d
00000310: 7571 0d3d 4a7c dd3c c224 3ebe ea83 58be
00000320: 713e ad3d 8f22 06be 687a e63d 4c32 0c3e
00000330: 93b3 5dbe 96b7 0a3e d874 df3d 0451 92bd
00000340: 863e 0f3d d979 30be 3066 dbbd 0f86 483d
00000350: 4383 163e 2127 98bc e3a5 05bd 113e 6e3e
00000360: 13fb 5d3d 3663 553b 6ac8 ac3d be6d 5e3d
00000370: 6595 9db9 c373 8ebd 7fa4 afbd 27d9 e33d
00000380: fde7 01be e163 ed3c 03b6 24be ca9e 993c
00000390: 9138 b83b 356e 443e 0412 ae3d b044 05be
000003a0: c26e 3e3d 02f2 c33d ad45 a93d 3d8a 373d
000003b0: c63a e2bd ddab 213d 6a27 98bc 0018 853d
000003c0: 7f45 e13d dc69 733d 25e5 7ebc 440c e13d
000003d0: 4633 5bbc d473 0b3e e4e4 8d3c f9f2 493d
000003e0: ceb9 2bbc 04e7 57bd 2e45 31bd b101 273d
000003f0: 9ff8 613d 007c 183c ed9b 2a3e d61f 923e

conv.bias f4 [32]
0.028606802 -0.017792 0.023071682 -0.017249145 -0.034677986 0.07349794 -0.07064954 -0.01524623
0.048734847 0.056721203 0.038276125 -0.009976971 0.0139205605 -0.07419904 0.008445379 0.03349887
0.060401797 0.006531561 0.057492662 0.005563173 0.053881384 0.05161179 -0.079468004 0.061893243
0.035591718 -0.07516903 0.046978865 -0.030357903 -0.024439326 0.05435273 -0.011652341 -0.044674866
00000000: d058 ea3c 87c0 91bc d300 bd3c 144e 8dbc
00000010: 810a 0ebd 1786 963d b5b0 90bd 53cb 79bc
00000020: 319e 473d 7e54 683d 6dc7 1c3d 7376 23bc
00000030: 1013 643c abf5 97bd 7d5e 0a3c 1c36 093d
00000040: e067 773d b406 d63b 6d7d 6b3d 474b b63b
00000050: bab2 5c3d e266 533d 1fc0 a2bd c583 7d3d
00000060: 9fc8 113d 38f2 99bd e96c 403d 23b1 f8bc
00000070: fb34 c8bc f8a0 5e3d 76e9 3ebc fefc 36bd

linear.weight f4 [10, 5408]
-0.0025303818 -0.02839395 -0.014814936 -0.0013383189 -0.007825326 -0.0074076727 -0.0062005394 -0.01036112
-0.0046770056 0.0108563835 -0.016083311 -0.0011715955 -0.008059888 0.0045318506 0.013580221 0.01413677
0.0018666348 0.0015432051 -0.028977774 -0.022613082 -0.016669504 0.02724141 -0.010119798 -0.021266824
0.030553997 -0.0027832072 -0.028740942 -0.012988517 0.012451056 -0.004257652 -0.022358842 -0.03854104
-0.038393095 0.009401823 -0.01341961 0.0025834078 -0.00477066 -0.030798076 0.008724219 -0.013510122
-0.015068525 -0.039386667 -0.0006883004 0.02530293 0.0033290093 -0.006671601 0.0035731 0.045702387
0.035226513 -0.0011008629 0.01887838 -0.028045861 0.006370235 0.009597229 -0.01817913 -0.0043425565
-0.010927767 -0.012534154 -0.0041346024 -0.028549444 0.037763402 -0.0029370764 0.005456956 0.01692525
-0.0047482564 0.01669358 0.013716625 0.007828732 -0.030282918 0.008512748 -0.0002770539 -0.029388096
-0.0045700585 -0.01689427 0.01680411 -0.011537827 -0.043820035 -0.018672936 -0.047483142 -0.000830624
-0.014250956 -0.014444824 -0.007565091 -0.0032733583 0.039888766 0.0015907455 0.0034255648 0.004827719
0.035511475 -0.019601664 -0.02035714 -0.030444415 0.02225094 -0.009929533 0.02273478 0.025463313
-0.0069002914 -0.009064303 -0.01653846 0.010321417 7.951781e-05 -0.020533687 0.01574065 -0.00018657568
-0.014760623 0.005491794 -0.0037046354 0.0031166738 -0.0076986426 -0.0058910255 0.0024360325 -0.021216968
-0.0013064222 0.011294648 0.011343842 0.0025189873 0.010685719 0.004092252 0.0366611 -0.01601152
0.0037308352 0.0033590854 0.002778629 -0.026941484 0.0113273505 -0.0034478747 -0.013380869 -0.00034299027
-0.011309472 0.0020139578 -0.0039167926 -0.040423892 -0.028926251 -0.0063190428 -0.00028068115 -0.0034469375
0.021750228 0.0023742223 0.012228686 0.0038497145 0.019338349 -0.018421102 0.008586682 0.016253006
0.0037177792 -0.014810696 -0.0039359024 -0.01299537 0.01682033 -0.026252458 -0.00411497 -0.006352054
0.026460845 0.0083867535 -0.0008587308 0.019813849 0.00471462 0.035189144 -0.006015899 -0.004253636
-0.0012984056 -0.05367632 -0.0033367923 0.016094264 -0.0073471875 0.010852289 0.025751498 0.0127940085
0.006395483 -0.020125182 0.02030892 0.022688862 0.0002815921 0.043900363 -0.01245892 0.015683053
-0.014036136 -0.0108300755 -0.0055368277 0.013289541 -0.006047112 0.023183577 -0.01187627 -0.0009759317
-0.013993487 0.0054678144 0.010965757 -0.016680285 -0.006949201 0.010147267 0.0021126587 0.04192363
0.0059445417 0.014659292 0.014452865 0.0070876004 -0.019132074 6.8440975e-05 -0.0072979145 -0.010499429
0.031597406 -0.017357772 -0.051258497 0.009445233 0.013612335 -0.049229234 -0.01458644 0.0015737397
0.0082815485 0.016633827 0.014884451 -0.031084446 0.017742768 -0.0043397183 0.00092073774 0.0024253032
0.00297116 -0.0174722 0.039215054 -0.010351093 -0.018356474 -0.017442023 -0.008000828 0.008666236
-0.00017857068 0.014506978 0.023868147 0.018898375 -0.007936494 0.001332233 0.017925095 0.003986082
0.0006711958 -0.0075261304 0.0106401555 0.025564982 0.013326328 0.016794112 0.003928319 -0.028025676
-0.012586204 0.016608428 -0.02688701 0.0127199115 -0.009102473 0.04598391 0.023767153 -0.029775718
0.0074949483 0.013349714 0.004968047 0.0132132 0.00092685194 -0.004917977 0.038680214 0.0030040045
00000000: c3d4 25bb 6e9a e8bc 58ba 72bc 886a afba
00000010: cc35 00bc 10bc f2bb e52d cbbb b0c1 29bc
00000020: 9141 99bb f9de 313c 26c1 83bc 3990 99ba
00000030: 9f0d 04bc eb7f 943b 937f 5e3c e99d 673c
00000040: dfa9 f43a 5f45 ca3a cc62 edbc 123f b9bc
00000050: 7c8e 88bc 6129 df3c 82cd 25bc c337 aebc
00000060: 604c fa3c 7866 36bb 2072 ebbc cacd 54bc
00000070: 84ff 4b3c c683 8bbb e429 b7bc 36dd 1dbd
00000080: 1442 1dbd 1b0a 1a3c eddd 5bbc 644e 293b
00000090: 3253 9cbb 3f4c fcbc 07f0 0e3c 8f59 5dbc
000000a0: fae1 76bc ea53 21bd 0f6f 34ba 1748 cf3c
000000b0: 822b 5a3b 729d dabb ac2a 6a3b 6d32 3b3d
000000c0: ad49 103d d44a 90ba d5a6 9a3c 6fc0 e5bc
000000d0: 67bd d03b b23d 1d3c 66ec 94bc 014c 8ebb
000000e0: 600a 33bc 0d5c 4dbc 8f7b 87bb 86e0 e9bc
000000f0: ccad 1a3d f77b 40bb 44d0 b23b d2a6 8a3c
00000100: 4397 9bbb fac0 883c b2bb 603c 1544 003c
00000110: e213 f8bc 0e79 0b3c 8c41 91b9 4ebf f0bc
00000120: 6ec0 95bb da65 8abc c6a8 893c 2709 3dbc
00000130: a37c 33bd fcf7 98bc af7d 42bd 3cbe 59ba
00000140: d77c 69bc fca9 6cbc 95e4 f7bb d785 56bb
00000150: 6762 233d 9080 d03a 717f 603b d831 9e3b
00000160: 7b74 113d ab93 a0bc 04c4 a6bc 9166 f9bc
00000170: 9a47 b63c 7baf 22bc 4a3e ba3c 7098 d03c
00000180: d71b e2bb 7182 14bc aa7b 87bc 291b 293c
00000190: cdc2 a638 4336 a8bc 89f2 803c 87a3 43b9
000001a0: 8ad6 71bc 82f4 b33b 78c9 72bb 1c41 4c3b
000001b0: e544 fcbb 8109 c1bb d8a5 1f3b 35cf adbc
000001c0: 413c abba 300d 393c 86db 393c 9815 253b
000001d0: 2713 2f3c 4c18 863b f329 163d 972a 83bc
000001e0: 0781 743b 1a24 5c3b a919 363b 63b4 dcbc
000001f0: 5a96 393c bdf5 61bb 6f3b 5bbc 60d3 b3b9
00000200: 5d4b 39bc 9bfc 033b 7058 80bb 8693 25bd
00000210: bff6 ecbc f90f cfbb 6328 93b9 04e6 61bb
00000220: 892d b23c d798 1b3b d45a 483c 7e4b 7c3b
00000230: 756b 9e3c dae7 96bc 28af 0c3c 0625 853c
00000240: fca5 733b 90a8 72bc bef8 80bb 88ea 54bc
00000250: caca 893c 650f d7bc dfd6 86bb e424 d0bb
00000260: 6ac4 d83c 9868 093c 731c 61ba a750 a23c
00000270: 197d 9a3b 7e22 103d 0521 c5bb 1662 8bbb
00000280: 432f aaba b3db 5bbd 16ae 5abb 1ed8 833c
00000290: adc0 f0bb cdcd 313c cef4 d23c f69d 513c
000002a0: 3391 d13b 91dd a4bc e45e a63c fedd b93c
000002b0: a7a2 9339 ded0 333d 7f20 4cbc bf79 803c
000002c0: d2f7 65bc a170 31bc 476e b5bb 60bc 593c
000002d0: da26 c6bb 7ceb bd3c b094 42bc abd5 7fba
000002e0: f044 65bc 5a2b b33b b8a9 333c 18a5 88bc
000002f0: 20b6 e3bb b940 263c 8874 0a3b 1db8 2b3d
00000300: 6eca c23b 872d 703c b6cb 6c3c 1a3f e83b
00000310: deba 9cbc f887 8f38 5823 efbb cc05 2cbc
00000320: 486c 013d e331 8ebc 6ef4 51bd 2ec0 1a3c
00000330: 4506 5f3c 98a4 49bd f7fb 6ebc f145 ce3a
00000340: 55af 073c aa43 883c eadd 733c cfa4 febc
00000350: 4859 913c 3234 8ebb aa5d 713a d6f1 1e3b
00000360: cbb7 423b dc21 8fbc f79f 203d a197 29bc
00000370: 5160 96bc 93e2 8ebc e815 03bc d4fc 0d3c
00000380: b43e 3bb9 adae 6d3c 2287 c33c c4d0 9a3c
00000390: 1208 02bc 529e ae3a a6d7 923c ae9d 823b
000003a0: 30f3 2f3a c29d f6bb 0c54 2e3c a76d d13c
000003b0: ac56 5a3c ce93 893c 21b9 803b 1a96 e5bc
000003c0: 5e36 4ebc 660e 883c 2642 dcbc 2d67 503c
000003d0: 8a22 15bc a059 3c3d 55b3 c23c 35ec f3bc
000003e0: 2f98 f53b c2b8 5a3c 00cb a23b 2d7c 583c
000003f0: fbf7 723a fb26 a1bb 256f 1e3d d5de 443b

linear.bias f4 [10]
-0.0083380565 -0.017800642 0.014584168 -0.007390881 0.02250596 0.013070027 -0.0022691933 -0.0056486926
0.014051099 -0.0029997698
00000000: 589c 08bc a7d2 91bc 6ff2 6e3c 342f f2bb
00000010: 6b5e b83c ab23 563c bfb6 14bb ab18 b9bb
00000020: 9536 663c c997 44bb
